examples/mliap/ACE_NN_Pytorch.pt (torch, 69932 bytes, 8 tensors)

weight f8 [37, 37]
000000 00 00 00 20 54 f2 ef 3f 00 00 00 a0 18 d0 9d 3f
       0.9983311295509338 0.0291141364723444
000010 00 00 00 80 ef 66 a5 3f 00 00 00 80 56 04 af 3f
       0.04180096089839935 0.060579970479011536
000020 00 00 00 20 25 ff a4 3f 00 00 00 c0 8b 40 ad bf
       0.04100910201668739 -0.05713307112455368
000030 00 00 00 40 fb da 97 bf 00 00 00 60 28 7e 9c 3f
       -0.023296285420656204 0.02782500348985195
000040 00 00 00 60 ec ed 77 bf 00 00 00 40 17 39 81 bf
       -0.00584213575348258 -0.008409673348069191
000050 00 00 00 00 6b ce 6d bf 00 00 00 60 d6 d9 86 bf
       -0.0036384668201208115 -0.011157679371535778
000060 00 00 00 80 7b 94 7b bf 00 00 00 40 aa 05 59 bf
       -0.006733400747179985 -0.001527229556813836
000070 00 00 00 80 77 b3 b6 3f 00 00 00 a0 d4 4b a1 3f
       0.08867594599723816 0.033781666308641434
000080 00 00 00 80 d2 65 a0 3f 00 00 00 e0 a5 22 8f 3f
       0.03202684223651886 0.01520280446857214
000090 00 00 00 80 e6 4b 93 bf 00 00 00 20 5e d6 9f bf
       -0.018844224512577057 -0.03109118528664112
0000a0 00 00 00 20 9c cd 8e bf 00 00 00 00 7f b6 8d bf
       -0.015040607191622257 -0.014508239924907684
0000b0 00 00 00 e0 38 90 4b 3f 00 00 00 60 86 98 91 bf
       0.0008411672315560281 -0.017183398827910423
0000c0 00 00 00 20 d0 2f 88 3f 00 00 00 40 f6 77 9a 3f
       0.011809946037828922 0.02584824338555336
0000d0 00 00 00 c0 de 12 a7 3f 00 00 00 c0 1e 50 b0 3f
       0.04506584256887436 0.06372253596782684
0000e0 00 00 00 80 f2 f3 a9 3f 00 00 00 e0 7c 07 b1 3f
       0.050689294934272766 0.06652050465345383
0000f0 00 00 00 80 d8 73 a4 3f 00 00 00 60 42 c6 98 3f
       0.039946332573890686 0.02419379912316799
000100 00 00 00 40 3f 78 95 3f 00 00 00 a0 f2 bc 8b 3f
       0.02096651867032051 0.013543982990086079
000110 00 00 00 e0 ec d9 7a 3f 00 00 00 60 59 1a 71 3f
       0.006555486004799604 0.0041755191050469875
000120 00 00 00 c0 a8 47 87 bf 00 00 00 40 eb 8a 9d 3f
       -0.011367147788405418 0.028850246220827103
000130 00 00 00 00 c9 e5 03 40 00 00 00 80 a5 c9 a2 3f
       2.4871997833251953 0.036694690585136414
000140 00 00 00 a0 52 d5 ab 3f 00 00 00 80 aa f8 a3 3f
       0.05436189845204353 0.0390065461397171
000150 00 00 00 60 2e 52 a7 bf 00 00 00 20 18 f4 93 bf
       -0.04554886743426323 -0.0194858331233263
000160 00 00 00 00 6b c0 97 3f 00 00 00 60 e0 92 74 bf
       0.02319495379924774 -0.00502288481220603
000170 00 00 00 e0 b0 20 7d bf 00 00 00 60 2d 78 6b bf
       -0.0071112546138465405 -0.0033532034140080214
000180 00 00 00 40 6f ef 82 bf 00 00 00 c0 7c f0 77 bf
       -0.009245747700333595 -0.005844580940902233
000190 00 00 00 c0 00 90 5c bf 00 00 00 c0 fe ba b6 3f
       -0.001743317348882556 0.08879081904888153
0001a0 00 00 00 20 e6 25 a3 3f 00 00 00 40 a0 d7 a1 3f
       0.03739852085709572 0.03484822064638138
0001b0 00 00 00 40 7a 31 95 3f 00 00 00 80 64 73 88 bf
       0.020696554332971573 -0.011938843876123428
0001c0 00 00 00 40 18 1e 99 bf 00 00 00 e0 e2 88 96 bf
       -0.0245288647711277 -0.022006554529070854
0001d0 00 00 00 20 c9 dd 95 bf 00 00 00 c0 55 51 7c bf
       -0.021353857591748238 -0.006913504563271999
0001e0 00 00 00 c0 2d c5 94 bf 00 00 00 c0 93 d3 71 3f
       -0.020283427089452744 0.0043521663174033165
0001f0 00 00 00 40 e1 8a 91 3f 00 00 00 80 3d 8b a3 3f
       0.017131347209215164 0.03817169368267059
000200 00 00 00 20 37 91 ad 3f 00 00 00 00 a6 21 a7 3f
       0.05774853006005287 0.04517859220504761
000210 00 00 00 e0 91 2c af 3f 00 00 00 80 03 b5 a1 3f
       0.060886915773153305 0.03458414971828461
000220 00 00 00 c0 4e e6 91 3f 00 00 00 60 1d 19 a0 3f
       0.017480116337537766 0.03144161030650139
000230 00 00 00 40 0f 99 99 3f 00 00 00 a0 50 7d 95 3f
       0.02499793842434883 0.02098585106432438
000240 00 00 00 40 07 7a 96 3f 00 00 00 e0 5d 7d 8e bf
       0.021949876099824905 -0.014887555502355099
000250 00 00 00 20 bb 3e a5 3f 00 00 00 40 61 74 a3 3f
       0.0414942242205143 0.0379972830414772
000260 00 00 00 a0 f3 1e f2 3f 00 00 00 e0 49 5b b3 3f
       1.1325565576553345 0.07561170309782028
000270 00 00 00 e0 19 14 a8 3f 00 00 00 20 2e 90 b3 bf
       0.04702835902571678 -0.07641876488924026
000280 00 00 00 60 84 29 a1 bf 00 00 00 c0 72 7f a8 3f
       -0.03351987525820732 0.04784735292196274
000290 00 00 00 a0 21 88 79 bf 00 00 00 80 dd 64 83 bf
       -0.006233340594917536 -0.009469728916883469
0002a0 00 00 00 c0 86 d2 6c bf 00 00 00 a0 c7 47 8a bf
       -0.003518355544656515 -0.012832221575081348
0002b0 00 00 00 a0 59 9f 7e bf 00 00 00 80 84 74 50 bf
       -0.007476186845451593 -0.0010043424554169178
0002c0 00 00 00 20 ff 68 b7 3f 00 00 00 a0 d3 be 9b 3f
       0.09144587069749832 0.027095133438706398
0002d0 00 00 00 40 fe 31 9b 3f 00 00 00 40 ef 47 7b 3f
       0.02655789628624916 0.006660399027168751
0002e0 00 00 00 e0 e4 0b a0 bf 00 00 00 c0 2b 33 a7 bf
       -0.031340744346380234 -0.04531227797269821
0002f0 00 00 00 40 79 58 74 bf 00 00 00 c0 78 6f 73 bf
       -0.0049671875312924385 -0.004744979552924633
000300 00 00 00 20 24 df 89 3f 00 00 00 c0 08 e1 78 bf
       0.012632639147341251 -0.006073984317481518
000310 00 00 00 60 48 55 98 3f 00 00 00 00 19 6e a4 3f
       0.02376282773911953 0.03990247845649719
000320 00 00 00 60 14 14 a8 3f 00 00 00 60 a5 cd b3 3f
       0.04702819511294365 0.07735665887594223
000330 00 00 00 e0 34 4d ab 3f 00 00 00 c0 ef ef b4 3f
       0.0533234141767025 0.0817861407995224
000340 00 00 00 a0 29 f6 a5 3f 00 00 00 c0 f3 f4 a3 3f
       0.04289369657635689 0.038978211581707
000350 00 00 00 c0 5e aa a1 3f 00 00 00 a0 c5 f7 95 3f
       0.034502945840358734 0.02145298756659031
000360 00 00 00 a0 12 25 89 3f 00 00 00 c0 34 dd 84 3f
       0.01227774191647768 0.01018754206597805
000370 00 00 00 60 71 50 8a 3f 00 00 00 20 c1 a6 96 3f
       0.012848745100200176 0.022120492532849312
000380 00 00 00 20 9b f7 92 3f 00 00 00 c0 a4 d8 9f 3f
       0.01852266676723957 0.031099867075681686
000390 00 00 00 a0 f1 75 f6 3f 00 00 00 60 4a 20 a0 3f
       1.4037948846817017 0.031496357172727585
0003a0 00 00 00 c0 8b c2 ac bf 00 00 00 80 a0 78 9b bf
       -0.05617176741361618 -0.026827342808246613
0003b0 00 00 00 00 63 09 94 3f 00 00 00 00 ae 9d 87 bf
       0.019567057490348816 -0.011531218886375427
0003c0 00 00 00 60 72 df 8a bf 00 00 00 00 e4 5d 83 bf
       -0.01312150340527296 -0.009456425905227661
0003d0 00 00 00 a0 3b 94 8e bf 00 00 00 e0 a5 9e 87 bf
       -0.014931169338524342 -0.01153306569904089
0003e0 00 00 00 a0 60 8a 7e bf 00 00 00 e0 58 68 b8 3f
       -0.007456185761839151 0.09534221142530441
0003f0 00 00 00 40 f3 a8 a1 3f 00 00 00 a0 0c 61 a0 3f
       0.03449211269617081 0.031990427523851395
000400 00 00 00 60 0c 3f 8f 3f 00 00 00 20 58 b3 97 bf
       0.015256973914802074 -0.023145081475377083
000410 00 00 00 00 e6 51 a3 bf 00 00 00 80 d6 e4 93 bf
       -0.03773421049118042 -0.01942763477563858
000420 00 00 00 00 61 19 94 bf 00 00 00 20 83 f5 63 bf
       -0.019628062844276428 -0.0024364052806049585
000430 00 00 00 80 23 11 98 bf 00 00 00 00 76 4b 82 3f
       -0.023502878844738007 0.008932992815971375
000440 00 00 00 60 52 4f 99 3f 00 00 00 c0 b3 a1 a4 3f
       0.024716651067137718 0.04029618948698044
000450 00 00 00 60 a9 39 af 3f 00 00 00 80 af 38 a9 3f
       0.060986798256635666 0.04926060140132904
000460 00 00 00 40 bd eb b0 3f 00 00 00 80 ca 18 a3 3f
       0.06609709560871124 0.03729851543903351
000470 00 00 00 60 ac 77 90 3f 00 00 00 60 d0 b6 9a 3f
       0.016081517562270164 0.026088004931807518
000480 00 00 00 60 54 76 92 3f 00 00 00 40 92 d4 86 3f
       0.01802951656281948 0.01114763505756855
000490 00 00 00 e0 9c 81 84 3f 00 00 00 80 ce 89 82 bf
       0.010012841783463955 -0.009051907807588577
0004a0 00 00 00 e0 37 96 95 3f 00 00 00 20 94 bd 91 3f
       0.021080849692225456 0.017324747517704964
0004b0 00 00 00 a0 15 9d 9e 3f 00 00 00 e0 c1 20 a9 3f
       0.029896104708313942 0.049078043550252914
0004c0 00 00 00 80 c2 f5 0a 40 00 00 00 60 b5 48 ad bf
       3.369999885559082 -0.05719534680247307
0004d0 00 00 00 20 22 b4 9c bf 00 00 00 40 fc cd 90 3f
       -0.02803090400993824 0.016410771757364273
0004e0 00 00 00 00 19 49 8c bf 00 00 00 00 db ea 8f bf
       -0.013811297714710236 -0.015584670007228851
0004f0 00 00 00 40 68 02 88 bf 00 00 00 c0 39 ed 91 bf
       -0.011723341420292854 -0.01750650629401207
000500 00 00 00 60 8e 92 8c bf 00 00 00 a0 e1 d6 83 bf
       -0.013951408676803112 -0.009687197394669056
000510 00 00 00 c0 0d a5 b6 3f 00 00 00 e0 a8 ca a0 3f
       0.08845601975917816 0.03279617056250572
000520 00 00 00 c0 73 d9 9d 3f 00 00 00 40 7d d0 90 3f
       0.029149826616048813 0.01642032340168953
000530 00 00 00 00 f6 16 96 bf 00 00 00 60 b6 cc a2 bf
       -0.021571964025497437 -0.036718081682920456
000540 00 00 00 80 e1 11 98 bf 00 00 00 e0 80 73 98 bf
       -0.023505710065364838 -0.023878110572695732
000550 00 00 00 20 68 21 7d bf 00 00 00 e0 0a 27 9a bf
       -0.007111937273293734 -0.025539560243487358
000560 00 00 00 00 ef 82 71 3f 00 00 00 00 88 e2 93 3f
       0.004275258630514145 0.019418835639953613
000570 00 00 00 20 45 33 a3 3f 00 00 00 80 29 5e ae 3f
       0.0375005342066288 0.05931214988231659
000580 00 00 00 60 87 2f a7 3f 00 00 00 80 75 45 b0 3f
       0.045284491032361984 0.06355985999107361
000590 00 00 00 c0 59 79 a1 3f 00 00 00 c0 46 92 91 3f
       0.034128956496715546 0.017159562557935715
0005a0 00 00 00 60 f7 48 9f 3f 00 00 00 00 db ce 97 3f
       0.030551781877875328 0.023250028491020203
0005b0 00 00 00 20 ed 57 92 3f 00 00 00 a0 f3 47 93 3f
       0.017913537099957466 0.018829161301255226
0005c0 00 00 00 40 95 b3 62 bf 00 00 00 20 7d da 61 bf
       -0.002282897476106882 -0.0021793788764625788
0005d0 00 00 00 a0 35 ea 8b bf 00 00 00 c0 21 dd 8d bf
       -0.013630312867462635 -0.014581931754946709
0005e0 00 00 00 80 e4 53 86 bf 00 00 00 40 a0 5a 81 3f
       -0.010902199894189835 0.008473636582493782
0005f0 00 00 00 60 1f de ff 3f 00 00 00 e0 8c 23 8a bf
       1.9917291402816772 -0.01276311930269003
000600 00 00 00 60 ca ed ac 3f 00 00 00 e0 fb be 91 bf
       0.05650169774889946 -0.01733010821044445
000610 00 00 00 e0 49 b9 96 bf 00 00 00 00 df dc 95 bf
       -0.02219119481742382 -0.021350368857383728
000620 00 00 00 e0 37 21 9a bf 00 00 00 00 98 17 9a bf
       -0.02551734261214733 -0.02548062801361084
000630 00 00 00 00 06 e6 99 bf 00 00 00 00 ad 4c 9c bf
       -0.025291532278060913 -0.027636244893074036
000640 00 00 00 20 49 fe 99 3f 00 00 00 00 99 1a 9e 3f
       0.02538408525288105 0.02939833700656891
000650 00 00 00 a0 e1 b4 a8 3f 00 00 00 e0 c6 1a b5 3f
       0.048255015164613724 0.0824398323893547
000660 00 00 00 20 77 5e b8 3f 00 00 00 c0 26 06 56 3f
       0.09519142657518387 0.0013442400377243757
000670 00 00 00 20 53 17 83 bf 00 00 00 80 87 7b 93 bf
       -0.009321832098066807 -0.01902591437101364
000680 00 00 00 e0 a4 93 9b bf 00 00 00 40 22 e6 a8 bf
       -0.02693040482699871 -0.04863078147172928
000690 00 00 00 60 b0 b3 ab bf 00 00 00 a0 96 aa b0 3f
       -0.05410529300570488 0.0651029720902443
0006a0 00 00 00 60 5e 00 a8 3f 00 00 00 e0 26 80 a9 3f
       0.04687781259417534 0.04980584606528282
0006b0 00 00 00 60 d2 1e a0 3f 00 00 00 20 74 72 aa 3f
       0.03148515149950981 0.05165446177124977
0006c0 00 00 00 80 5c 91 ac 3f 00 00 00 00 0f c0 8c bf
       0.05579651892185211 -0.014038197696208954
0006d0 00 00 00 80 98 98 89 bf 00 00 00 80 27 1a 89 bf
       -0.012498084455728531 -0.012256916612386703
0006e0 00 00 00 a0 59 2e 91 bf 00 00 00 80 1b d9 69 bf
       -0.01677837409079075 -0.003155282698571682
0006f0 00 00 00 e0 47 87 8d 3f 00 00 00 c0 c0 b1 7d 3f
       0.014418183825910091 0.007249596528708935
000700 00 00 00 80 91 42 76 3f 00 00 00 60 b0 ca 78 3f
       0.005434578284621239 0.006052674259990454
000710 00 00 00 20 d7 8c 9b 3f 00 00 00 20 17 b1 97 3f
       0.026904450729489326 0.023136483505368233
000720 00 00 00 00 c4 f5 f1 3f 00 00 00 00 e6 7e a4 3f
       1.1225013732910156 0.04003065824508667
000730 00 00 00 c0 d5 ae 74 3f 00 00 00 20 0a 3b 55 3f
       0.005049548111855984 0.0012958144070580602
000740 00 00 00 c0 2b d4 5e 3f 00 00 00 20 27 fa 53 bf
       0.0018816401716321707 -0.0012193090515211225
000750 00 00 00 20 86 37 55 bf 00 00 00 a0 78 4f 54 bf
       -0.0012949762167409062 -0.0012396505335345864
000760 00 00 00 40 45 68 98 bf 00 00 00 00 9a 1c 94 3f
       -0.023835260421037674 0.019640356302261353
000770 00 00 00 c0 6e cd 98 3f 00 00 00 40 96 fc a0 3f
       0.024221163243055344 0.03317708522081375
000780 00 00 00 c0 d3 ba b0 3f 00 00 00 80 b7 ef b3 3f
       0.06535075604915619 0.07787653803825378
000790 00 00 00 00 03 53 60 bf 00 00 00 00 57 3b 79 bf
       -0.001992708072066307 -0.006160106509923935
0007a0 00 00 00 c0 18 7d 91 bf 00 00 00 80 33 18 89 bf
       -0.017078768461942673 -0.012253191322088242
0007b0 00 00 00 e0 8a e3 a0 bf 00 00 00 c0 96 4d a5 bf
       -0.03298601135611534 -0.041607581079006195
0007c0 00 00 00 00 9c 5c a2 3f 00 00 00 a0 b7 09 8a 3f
       0.03586280345916748 0.012713846750557423
0007d0 00 00 00 00 a1 5d 98 3f 00 00 00 20 46 9f 24 bf
       0.023794665932655334 -0.00015733462350908667
0007e0 00 00 00 00 f9 74 9f 3f 00 00 00 a0 fd 32 a1 3f
       0.030719652771949768 0.03359215334057808
0007f0 00 00 00 00 6c f3 7f 3f 00 00 00 c0 11 69 92 3f
       0.007800504565238953 0.017978932708501816

bias f8 [37]
000000 00 00 00 00 d5 0c 10 40 00 00 00 c0 36 84 09 40
       4.012531280517578 3.1895575523376465
000010 00 00 00 20 4f 3c 0e 40 00 00 00 00 0d 98 14 40
       3.7794477939605713 5.148487091064453
000020 00 00 00 c0 45 3b 1a 40 00 00 00 e0 c9 7f ed 3f
       6.557883262634277 0.9218491911888123
000030 00 00 00 80 40 d6 f3 3f 00 00 00 e0 f6 db 0c 40
       1.2398076057434082 3.6074044704437256
000040 00 00 00 e0 90 87 f4 3f 00 00 00 80 bb 82 f2 3f
       1.2830971479415894 1.1569170951843262
000050 00 00 00 60 89 1f f4 3f 00 00 00 40 5d 72 ed 3f
       1.2576993703842163 0.9202104806900024
000060 00 00 00 20 41 14 f1 3f 00 00 00 c0 05 f2 f4 3f
       1.067444920539856 1.3090875148773193
000070 00 00 00 e0 e7 94 d6 bf 00 00 00 20 ea b9 d5 bf
       -0.3528384864330292 -0.33947232365608215
000080 00 00 00 c0 a2 44 d4 bf 00 00 00 e0 c1 8b d8 bf
       -0.3166891932487488 -0.3835301101207733
000090 00 00 00 a0 3f 5e d5 bf 00 00 00 60 2f 99 d4 bf
       -0.33387747406959534 -0.32184967398643494
0000a0 00 00 00 e0 39 a7 dc 3f 00 00 00 e0 05 6c e1 3f
       0.4477066695690155 0.5444363951683044
0000b0 00 00 00 c0 79 72 de 3f 00 00 00 c0 08 2b e2 3f
       0.4757370352745056 0.5677531957626343
0000c0 00 00 00 40 65 73 e1 3f 00 00 00 80 c7 ee e0 3f
       0.5453363656997681 0.5291478633880615
0000d0 00 00 00 20 0f ac d2 bf 00 00 00 20 bf 37 d2 bf
       -0.2917516529560089 -0.2846525013446808
0000e0 00 00 00 c0 3b 9b d0 bf 00 00 00 e0 44 44 d3 bf
       -0.2594746947288513 -0.3010418117046356
0000f0 00 00 00 40 46 00 d5 bf 00 00 00 80 fa 6d d1 bf
       -0.3281417489051819 -0.27233755588531494
000100 00 00 00 40 0f 1f bd 3f 00 00 00 c0 d4 bd c5 3f
       0.11375518143177032 0.16985568404197693
000110 00 00 00 80 63 2d a6 3f 00 00 00 e0 f5 c1 b5 bf
       0.043315038084983826 -0.08499085158109665
000120 00 00 00 a0 58 96 c7 3f
       0.18427570164203644

weight f8 [64, 37]
000000 00 00 00 80 93 21 c1 bf 00 00 00 a0 b2 3f b0 3f
       -0.13383716344833374 0.0634719505906105
000010 00 00 00 20 e6 e5 9c bf 00 00 00 00 50 aa aa 3f
       -0.02822074480354786 0.052080631256103516
000020 00 00 00 e0 20 81 b8 3f 00 00 00 20 c4 ee 9f bf
       0.09572034329175949 -0.031184257939457893
000030 00 00 00 00 b3 5b 90 3f 00 00 00 60 1b 6d c5 bf
       0.015974804759025574 -0.16739217936992645
000040 00 00 00 20 26 2d c1 bf 00 00 00 40 e3 98 c0 3f
       -0.13419033586978912 0.12966576218605042
000050 00 00 00 40 5a ff 96 bf 00 00 00 80 15 21 a4 3f
       -0.02245846763253212 0.039314910769462585
000060 00 00 00 60 62 33 b4 bf 00 00 00 80 80 b7 bb bf
       -0.07890906184911728 -0.10826876759529114
000070 00 00 00 20 c5 93 bd bf 00 00 00 80 45 9c c6 bf
       -0.11553604155778885 -0.17664402723312378
000080 00 00 00 c0 e9 9b c3 bf 00 00 00 c0 f7 94 a0 3f
       -0.1531955897808075 0.03238653391599655
000090 00 00 00 a0 94 79 bf bf 00 00 00 e0 d6 28 90 bf
       -0.12294892221689224 -0.015780789777636528
0000a0 00 00 00 20 79 de bb 3f 00 00 00 a0 d4 af c3 bf
       0.10886342078447342 -0.15380342304706573
0000b0 00 00 00 a0 27 69 b7 3f 00 00 00 40 1a b4 c4 bf
       0.09144828468561172 -0.1617462933063507
0000c0 00 00 00 20 c7 82 93 3f 00 00 00 e0 f9 9c be bf
       0.019053565338253975 -0.11958276480436325
0000d0 00 00 00 00 6d f0 b9 bf 00 00 00 c0 e5 d8 c1 3f
       -0.10132485628128052 0.1394316852092743
0000e0 00 00 00 60 2a 57 c2 bf 00 00 00 80 96 9d c1 3f
       -0.14328508079051971 0.1376217007637024
0000f0 00 00 00 c0 a0 a8 b8 bf 00 00 00 e0 2b 4a b7 3f
       -0.09632305800914764 0.09097551554441452
000100 00 00 00 60 ab 21 b6 bf 00 00 00 a0 bc 9e b4 bf
       -0.08645125478506088 -0.08054713159799576
000110 00 00 00 80 98 e0 b3 bf 00 00 00 c0 99 54 b1 3f
       -0.07764580845832825 0.06769715249538422
000120 00 00 00 60 f4 b4 c2 bf 00 00 00 20 f2 16 87 bf
       -0.14614729583263397 -0.011274234391748905
000130 00 00 00 40 47 7d c7 3f 00 00 00 00 44 d3 8b 3f
       0.1835106909275055 0.013586550951004028
000140 00 00 00 80 12 cd 5d 3f 00 00 00 a0 b7 82 81 bf
       0.0018189125694334507 -0.008550104685127735
000150 00 00 00 00 7a 7f bf bf 00 00 00 60 bc 2d a0 bf
       -0.1230388879776001 -0.03159893676638603
000160 00 00 00 c0 3f cf c2 3f 00 00 00 80 b5 12 a3 bf
       0.14694973826408386 -0.03725211322307587
000170 00 00 00 a0 39 8c ab 3f 00 00 00 80 2c 2c a0 bf
       0.05380420759320259 -0.03158701956272125
000180 00 00 00 60 89 31 b5 3f 00 00 00 80 38 23 c2 bf
       0.08278711885213852 -0.14169985055923462
000190 00 00 00 80 b4 4d 91 bf 00 00 00 80 00 83 a4 3f
       -0.016897983849048615 0.040061965584754944
0001a0 00 00 00 20 b5 6a aa bf 00 00 00 40 1d d4 c3 3f
       -0.05159536376595497 0.15491071343421936
0001b0 00 00 00 e0 bf dd b0 bf 00 00 00 a0 2e 0e 94 bf
       -0.06588362902402878 -0.019585350528359413
0001c0 00 00 00 40 aa 28 bf 3f 00 00 00 a0 ca 26 b0 3f
       0.12171424925327301 0.06309191137552261
0001d0 00 00 00 20 a2 be be 3f 00 00 00 c0 a7 d4 aa 3f
       0.12009633332490921 0.052403680980205536
0001e0 00 00 00 40 d5 7d 80 3f 00 00 00 20 a7 fc b8 3f
       0.008052507415413857 0.09760517627000809
0001f0 00 00 00 a0 35 17 b8 bf 00 00 00 60 9a 66 b5 3f
       -0.09410414844751358 0.0835968479514122
000200 00 00 00 e0 21 4e b1 bf 00 00 00 e0 59 34 b3 3f
       -0.06759845465421677 0.07501756399869919
000210 00 00 00 00 f6 90 b9 3f 00 00 00 a0 39 51 b5 bf
       0.09986817836761475 -0.08327064663171768
000220 00 00 00 60 5c 8f a1 3f 00 00 00 c0 30 19 c0 bf
       0.03429688140749931 -0.1257687509059906
000230 00 00 00 e0 27 d5 8e bf 00 00 00 40 f4 b1 b7 bf
       -0.015054999850690365 -0.09255911409854889
000240 00 00 00 e0 3d 6d a6 bf 00 00 00 60 fd fc a2 bf
       -0.04380219802260399 -0.03708640858530998
000250 00 00 00 a0 e6 95 b8 3f 00 00 00 60 bd 91 c4 3f
       0.09603730589151382 0.16069762408733368
000260 00 00 00 40 8f 50 b0 3f 00 00 00 80 64 7a 9b 3f
       0.06372924149036407 0.02683407813310623
000270 00 00 00 a0 1c b1 c4 3f 00 00 00 80 6e 0d 85 bf
       0.1616550236940384 -0.010279525071382523
000280 00 00 00 60 e6 79 9d bf 00 00 00 40 c0 e9 c3 3f
       -0.028785323724150658 0.15557101368904114
000290 00 00 00 00 7f 2c b1 bf 00 00 00 40 b4 98 b9 bf
       -0.06708520650863647 -0.09998632967472076
0002a0 00 00 00 20 ce 20 8a bf 00 00 00 e0 21 b9 b5 3f
       -0.012757883407175541 0.08485614508390427
0002b0 00 00 00 20 40 ae bc bf 00 00 00 00 5c 57 b1 bf
       -0.11203385144472122 -0.06773924827575684
0002c0 00 00 00 20 64 30 c3 3f 00 00 00 40 60 89 75 3f
       0.14991427958011627 0.005257965065538883
0002d0 00 00 00 80 f6 c9 94 3f 00 00 00 e0 3f 8d c0 3f
       0.02030167728662491 0.12931059300899506
0002e0 00 00 00 00 4b 5a bb 3f 00 00 00 80 43 3d 94 bf
       0.10684651136398315 -0.01976495236158371
0002f0 00 00 00 00 f6 2f b7 bf 00 00 00 40 82 3f a6 bf
       -0.09057557582855225 -0.04345328360795975
000300 00 00 00 80 a7 c1 a6 3f 00 00 00 a0 b1 d3 b7 bf
       0.04444621503353119 -0.09307394176721573
000310 00 00 00 a0 e2 8c bd bf 00 00 00 20 ff 27 aa bf
       -0.11543098837137222 -0.05108639970421791
000320 00 00 00 40 d0 0a c2 bf 00 00 00 80 40 65 b9 bf
       -0.14095500111579895 -0.09920123219490051
000330 00 00 00 a0 05 47 c2 bf 00 00 00 80 ff 46 bc 3f
       -0.14279241859912872 0.11045834422111511
000340 00 00 00 e0 f8 31 a2 bf 00 00 00 80 25 a8 bd 3f
       -0.03553750738501549 0.11584696173667908
000350 00 00 00 60 66 fb af 3f 00 00 00 c0 b0 36 c3 3f
       0.06246490404009819 0.1501065194606781
000360 00 00 00 a0 5c 95 9c bf 00 00 00 40 bb 4a b2 bf
       -0.027913520112633705 -0.07145281136035919
000370 00 00 00 80 35 7a b7 3f 00 00 00 80 8b 88 ae 3f
       0.09170851111412048 0.059635505080223083
000380 00 00 00 a0 d3 f6 b4 3f 00 00 00 20 76 af 9a bf
       0.08189127594232559 -0.026059957221150398
000390 00 00 00 60 ce c9 b2 bf 00 00 00 80 52 92 bd bf
       -0.07339181751012802 -0.11551395058631897
0003a0 00 00 00 00 93 02 a9 bf 00 00 00 e0 69 4a 9f 3f
       -0.04884776473045349 0.03055730275809765
0003b0 00 00 00 00 84 6e a1 bf 00 00 00 20 b4 a7 c9 3f
       -0.034046292304992676 0.20043040812015533
0003c0 00 00 00 20 95 35 aa bf 00 00 00 60 13 e8 cb 3f
       -0.051190052181482315 0.21801988780498505
0003d0 00 00 00 a0 14 c5 c1 3f 00 00 00 a0 a3 85 b1 bf
       0.13882692158222198 -0.06844542175531387
0003e0 00 00 00 a0 49 bf c0 3f 00 00 00 e0 15 ee c5 3f
       0.13083763420581818 0.17132829129695892
0003f0 00 00 00 a0 01 9f c1 3f 00 00 00 a0 b8 cc b0 3f
       0.13766498863697052 0.06562379747629166
000400 00 00 00 e0 20 d6 c2 bf 00 00 00 80 d9 7b c4 bf
       -0.14715968072414398 -0.1600295901298523
000410 00 00 00 80 2b a2 c6 bf 00 00 00 c0 91 8b c4 3f
       -0.17682403326034546 0.16050931811332703
000420 00 00 00 a0 60 0c b2 3f 00 00 00 a0 78 e6 9c 3f
       0.07050136476755142 0.028222927823662758
000430 00 00 00 80 b4 a8 bb 3f 00 00 00 e0 0c 50 b4 3f
       0.10804298520088196 0.07934647053480148
000440 00 00 00 60 f0 50 be bf 00 00 00 e0 d7 f2 a8 3f
       -0.11842253059148788 0.048727747052907944
000450 00 00 00 60 a5 50 31 3f 00 00 00 00 7c 9d 81 3f
       0.0002642062900122255 0.008601158857345581
000460 00 00 00 e0 c4 af 80 bf 00 00 00 00 ba ca bc bf
       -0.008147752843797207 -0.11246836185455322
000470 00 00 00 a0 78 22 b5 3f 00 00 00 80 2c 5c a8 3f
       0.08255723863840103 0.04757823050022125
000480 00 00 00 60 c0 e6 c0 3f 00 00 00 e0 85 49 b6 3f
       0.13204197585582733 0.0870593711733818
000490 00 00 00 e0 9b d7 88 3f 00 00 00 60 e1 bc ad 3f
       0.012129991315305233 0.05808166787028313
0004a0 00 00 00 e0 ed 15 a2 3f 00 00 00 a0 be 62 93 bf
       0.03532355651259422 -0.018931368365883827
0004b0 00 00 00 60 08 28 a4 bf 00 00 00 00 54 39 b4 3f
       -0.0393679253757 0.07899975776672363
0004c0 00 00 00 00 6b e3 be bf 00 00 00 00 20 40 c2 3f
       -0.12065762281417847 0.14258193969726562
0004d0 00 00 00 20 ba 59 b9 3f 00 00 00 80 95 6b c5 3f
       0.09902537614107132 0.16734570264816284
0004e0 00 00 00 c0 db 59 c3 bf 00 00 00 20 5b 7c 8f bf
       -0.15117976069450378 -0.015373908914625645
0004f0 00 00 00 c0 64 37 b5 bf 00 00 00 00 1c 47 89 3f
       -0.08287648856639862 0.012342661619186401
000500 00 00 00 e0 6b a6 b6 3f 00 00 00 80 79 2e b3 3f
       0.08847688883543015 0.07492789626121521
000510 00 00 00 a0 47 65 a8 bf 00 00 00 60 66 31 92 3f
       -0.04764770343899727 0.017766570672392845
000520 00 00 00 60 70 09 88 bf 00 00 00 60 d8 be b0 bf
       -0.011736753396689892 -0.06541206687688828
000530 00 00 00 00 d9 4f bc bf 00 00 00 40 8d 4b c2 3f
       -0.11059337854385376 0.14293065667152405
000540 00 00 00 60 e7 4b c2 bf 00 00 00 e0 bf 61 c1 bf
       -0.1429414004087448 -0.13579557836055756
000550 00 00 00 80 0b 1d b7 bf 00 00 00 40 c7 4d ad bf
       -0.09028694033622742 -0.057234026491642
000560 00 00 00 40 6f 12 bb 3f 00 00 00 20 cf fe c7 3f
       0.10575003921985626 0.1874636560678482
000570 00 00 00 80 2b 99 b7 bf 00 00 00 20 52 47 c6 bf
       -0.09218093752861023 -0.17405153810977936
000580 00 00 00 c0 98 fe aa 3f 00 00 00 c0 68 1d ad bf
       0.05272366851568222 -0.05686499923467636
000590 00 00 00 00 83 70 b5 3f 00 00 00 40 bb 67 b7 3f
       0.08374804258346558 0.09142656624317169
0005a0 00 00 00 20 ac e0 85 bf 00 00 00 20 0c e1 30 bf
       -0.010682434774935246 -0.0002575544931460172
0005b0 00 00 00 20 c8 45 c0 3f 00 00 00 60 20 ed af 3f
       0.12712956964969635 0.06235600635409355
0005c0 00 00 00 60 cd 09 9d bf 00 00 00 80 6d bb bb bf
       -0.02835770510137081 -0.1083286702632904
0005d0 00 00 00 60 73 23 c0 3f 00 00 00 80 c4 2d b4 bf
       0.12608186900615692 -0.07882335782051086
0005e0 00 00 00 e0 b9 f5 7b 3f 00 00 00 c0 6b cd b5 bf
       0.006826139520853758 -0.08516572415828705
0005f0 00 00 00 20 c2 8d b8 3f 00 00 00 60 28 ef bb bf
       0.09591306000947952 -0.1091180071234703
000600 00 00 00 00 c2 0f ca bf 00 00 00 a0 56 e7 94 3f
       -0.20360589027404785 0.020413735881447792
000610 00 00 00 00 ad 82 a2 bf 00 00 00 20 fe bd a3 3f
       -0.03615322709083557 0.03855890408158302
000620 00 00 00 e0 24 a7 b9 3f 00 00 00 80 d5 26 c4 3f
       0.10020666569471359 0.1574351191520691
000630 00 00 00 60 e5 c0 b4 bf 00 00 00 20 cb ba bb bf
       -0.08106835931539536 -0.108318991959095
000640 00 00 00 e0 24 56 c6 3f 00 00 00 40 b2 15 b2 3f
       0.17450390756130219 0.07064355909824371
000650 00 00 00 c0 c6 29 9e 3f 00 00 00 60 9d ef a6 3f
       0.029456239193677902 0.044796865433454514
000660 00 00 00 e0 47 fd c4 bf 00 00 00 e0 d9 f5 c4 3f
       -0.16397951543331146 0.16375277936458588
000670 00 00 00 60 4f 3b 83 bf 00 00 00 e0 85 d8 c4 3f
       -0.009390468709170818 0.1628577560186386
000680 00 00 00 e0 1d 10 20 3f 00 00 00 20 85 9f b3 3f
       0.0001225506275659427 0.07665283232927322
000690 00 00 00 20 24 90 9e 3f 00 00 00 c0 96 c5 a1 bf
       0.029846729710698128 -0.034710608422756195
0006a0 00 00 00 c0 d8 2f ab 3f 00 00 00 60 23 ad bc 3f
       0.05309941619634628 0.11201687902212143
0006b0 00 00 00 60 e3 8c bc bf 00 00 00 20 e0 05 c4 bf
       -0.1115247830748558 -0.15642930567264557
0006c0 00 00 00 40 aa 48 bc 3f 00 00 00 c0 8f e2 c6 3f
       0.11048378050327301 0.17878910899162292
0006d0 00 00 00 a0 2b 6d c1 3f 00 00 00 a0 47 5a b7 bf
       0.13614411652088165 -0.09122131019830704
0006e0 00 00 00 40 d5 f0 a1 3f 00 00 00 c0 51 3c bd bf
       0.035040535032749176 -0.11420165002346039
0006f0 00 00 00 60 6c e7 c4 3f 00 00 00 c0 1b a0 62 bf
       0.16331247985363007 -0.002273611258715391
000700 00 00 00 40 92 75 bc 3f 00 00 00 40 09 8b bd bf
       0.1111689954996109 -0.11540277302265167
000710 00 00 00 20 d4 de af bf 00 00 00 00 1a 44 b1 bf
       -0.06224692240357399 -0.06744539737701416
000720 00 00 00 60 28 40 b6 bf 00 00 00 20 a7 bf b1 3f
       -0.0869164690375328 0.06933064013719559
000730 00 00 00 00 5c 95 ae bf 00 00 00 a0 c4 75 ba 3f
       -0.05973327159881592 0.10335949808359146
000740 00 00 00 80 19 df 95 3f 00 00 00 80 8b f1 b7 3f
       0.021358869969844818 0.09352943301200867
000750 00 00 00 a0 6a 4e 9b bf 00 00 00 a0 6d 2b bd 3f
       -0.026666322723031044 0.113943912088871
000760 00 00 00 e0 8b 01 ba 3f 00 00 00 20 48 be ae 3f
       0.10158609598875046 0.06004548445343971
000770 00 00 00 80 93 5a c7 bf 00 00 00 e0 58 e7 7a 3f
       -0.18245166540145874 0.0065682861022651196
000780 00 00 00 c0 46 13 a2 bf 00 00 00 80 ce 86 c1 3f
       -0.03530331701040268 0.13692647218704224
000790 00 00 00 e0 00 24 c0 bf 00 00 00 40 fe 81 ba 3f
       -0.12609873712062836 0.10354603826999664
0007a0 00 00 00 a0 84 c8 ae 3f 00 00 00 80 1a a7 b5 bf
       0.06012358143925667 -0.08458104729652405
0007b0 00 00 00 40 3f 14 a5 bf 00 00 00 20 22 ca c4 bf
       -0.04117009788751602 -0.16241861879825592
0007c0 00 00 00 80 b2 9e 7e 3f 00 00 00 40 c7 1b 67 3f
       0.007475564256310463 0.0028208629228174686
0007d0 00 00 00 60 45 33 92 bf 00 00 00 20 d0 60 94 3f
       -0.017773708328604698 0.01990056224167347
0007e0 00 00 00 c0 83 b9 bb bf 00 00 00 e0 a7 63 92 3f
       -0.10829947888851166 0.017958281561732292
0007f0 00 00 00 60 b2 11 b6 bf 00 00 00 20 90 34 b2 3f
       -0.08620753139257431 0.07111454755067825

bias f8 [64]
000000 00 00 00 a0 5a 6b ba 3f 00 00 00 60 5d 0f c3 3f
       0.10320059210062027 0.1489063948392868
000010 00 00 00 60 11 05 a2 bf 00 00 00 e0 ba ae 93 bf
       -0.035194914788007736 -0.01922122947871685
000020 00 00 00 40 47 72 be bf 00 00 00 a0 d0 26 bb 3f
       -0.11893124878406525 0.10606101900339127
000030 00 00 00 a0 e7 bb 9b 3f 00 00 00 e0 1b b8 96 bf
       0.0270839873701334 -0.02218669466674328
000040 00 00 00 40 ff 7d bb bf 00 00 00 40 2c b4 66 3f
       -0.10739131271839142 0.002771459985524416
000050 00 00 00 60 09 20 c4 3f 00 00 00 20 d8 4e 97 3f
       0.15722768008708954 0.02276170440018177
000060 00 00 00 20 05 c8 c2 bf 00 00 00 e0 55 70 c2 3f
       -0.14672912657260895 0.14405320584774017
000070 00 00 00 60 b2 f3 c1 3f 00 00 00 60 20 ef bb bf
       0.14024953544139862 -0.1091175302863121
000080 00 00 00 c0 af 84 b9 bf 00 00 00 60 6e c3 71 bf
       -0.09968088567256927 -0.0043367682956159115
000090 00 00 00 60 97 50 ab 3f 00 00 00 20 5e 91 a3 3f
       0.05334923788905144 0.03821844235062599
0000a0 00 00 00 80 ae 7f c5 3f 00 00 00 80 a3 6d c7 3f
       0.1679590344429016 0.18303340673446655
0000b0 00 00 00 c0 d7 57 ac bf 00 00 00 a0 c5 d6 bd 3f
       -0.055357687175273895 0.11655841022729874
0000c0 00 00 00 80 73 23 b7 bf 00 00 00 20 97 ad b7 3f
       -0.09038469195365906 0.09249252825975418
0000d0 00 00 00 c0 cb 1b bb 3f 00 00 00 c0 dd c4 b1 bf
       0.10589288175106049 -0.06941018998622894
0000e0 00 00 00 c0 64 dd c5 3f 00 00 00 80 f4 1f b7 3f
       0.17081889510154724 0.09033134579658508
0000f0 00 00 00 00 b2 a4 c0 3f 00 00 00 e0 40 4c a3 3f
       0.13002610206604004 0.0376911424100399
000100 00 00 00 a0 78 a0 c5 3f 00 00 00 00 50 75 c0 bf
       0.16895969212055206 -0.12858009338378906
000110 00 00 00 60 87 0d 91 bf 00 00 00 60 cb 63 bb 3f
       -0.016653170809149742 0.1069914922118187
000120 00 00 00 c0 3b 62 c4 bf 00 00 00 80 2e 14 ba bf
       -0.15924784541130066 -0.10187044739723206
000130 00 00 00 80 2b 43 c2 3f 00 00 00 40 90 08 c4 3f
       0.14267486333847046 0.1565113365650177
000140 00 00 00 00 75 53 bf bf 00 00 00 80 67 b7 bc 3f
       -0.12236720323562622 0.11217352747917175
000150 00 00 00 20 62 61 a9 3f 00 00 00 80 88 3f ca 3f
       0.04957110062241554 0.20506387948989868
000160 00 00 00 00 fd 19 a3 3f 00 00 00 00 ae f9 a2 bf
       0.03730764985084534 -0.03706115484237671
000170 00 00 00 c0 5f d3 c0 3f 00 00 00 60 27 96 b2 3f
       0.1314506232738495 0.07260366529226303
000180 00 00 00 20 0d ff 77 bf 00 00 00 20 df c5 a7 3f
       -0.005858470220118761 0.046431515365839005
000190 00 00 00 c0 43 63 c3 3f 00 00 00 40 d8 c1 c0 3f
       0.15146681666374207 0.13091567158699036
0001a0 00 00 00 a0 91 53 d2 3f 00 00 00 c0 1a 19 c4 3f
       0.28635063767433167 0.15701612830162048
0001b0 00 00 00 20 91 55 a8 3f 00 00 00 60 1c 6b b3 bf
       0.047527823597192764 -0.075853131711483
0001c0 00 00 00 80 db ab 9a bf 00 00 00 60 c7 7c c3 3f
       -0.026046209037303925 0.1522454470396042
0001d0 00 00 00 80 62 14 aa bf 00 00 00 00 94 2f ba bf
       -0.05093677341938019 -0.10228848457336426
0001e0 00 00 00 40 ab 15 c1 3f 00 00 00 a0 3d 33 c1 bf
       0.13347378373146057 -0.13437624275684357
0001f0 00 00 00 e0 02 b8 96 3f 00 00 00 80 97 e2 bc 3f
       0.022186322137713432 0.11283251643180847

weight f8 [64, 64]
000000 00 00 00 c0 0e c5 b2 3f 00 00 00 60 94 e1 bc 3f
       0.07331936061382294 0.11281707137823105
000010 00 00 00 a0 7a 7c 76 bf 00 00 00 20 db 5c a7 3f
       -0.005489806178957224 0.045630309730768204
000020 00 00 00 20 a0 61 9f bf 00 00 00 80 bc 3b 95 3f
       -0.03064584918320179 0.020735688507556915
000030 00 00 00 80 44 52 ad bf 00 00 00 20 e2 18 8f 3f
       -0.05726827681064606 0.01518417987972498
000040 00 00 00 60 21 52 a7 bf 00 00 00 00 29 61 c2 3f
       -0.04554848000407219 0.14359009265899658
000050 00 00 00 00 e0 d3 49 bf 00 00 00 40 f3 75 8a bf
       -0.0007881969213485718 -0.012920284643769264
000060 00 00 00 80 c0 3a 83 bf 00 00 00 a0 2f ac b6 3f
       -0.009389404207468033 0.08856485038995743
000070 00 00 00 e0 ce bd c2 3f 00 00 00 e0 af 90 b1 bf
       0.14641748368740082 -0.06861399859189987
000080 00 00 00 00 ac 63 b8 3f 00 00 00 20 c1 21 bb bf
       0.09527087211608887 -0.10598380118608475
000090 00 00 00 c0 96 b5 a2 3f 00 00 00 e0 4e bc 8f bf
       0.036541663110256195 -0.015495887957513332
0000a0 00 00 00 00 4f 2b aa bf 00 00 00 40 07 94 ac bf
       -0.05111166834831238 -0.05581686645746231
0000b0 00 00 00 80 4c 9e aa 3f 00 00 00 60 87 fd a0 bf
       0.05198897421360016 -0.033184271305799484
0000c0 00 00 00 c0 3d 48 c3 3f 00 00 00 c0 60 62 94 bf
       0.15064212679862976 -0.019906532019376755
0000d0 00 00 00 00 51 67 96 bf 00 00 00 c0 a5 76 c2 bf
       -0.021878495812416077 -0.14424583315849304
0000e0 00 00 00 a0 17 15 c3 bf 00 00 00 80 e7 90 b4 3f
       -0.14908118546009064 0.0803360641002655
0000f0 00 00 00 00 bd 1d a5 3f 00 00 00 a0 99 ae ad 3f
       0.041242510080337524 0.05797271803021431
000100 00 00 00 00 a2 17 aa bf 00 00 00 c0 50 f5 66 bf
       -0.05096155405044556 -0.002802522387355566
000110 00 00 00 20 e5 36 ab bf 00 00 00 a0 75 a7 9a bf
       -0.05315319076180458 -0.0260294321924448
000120 00 00 00 c0 2d 8c b5 bf 00 00 00 00 47 96 c0 3f
       -0.08417020738124847 0.1295861005783081
000130 00 00 00 80 56 1d a3 bf 00 00 00 c0 26 3e 91 bf
       -0.037333205342292786 -0.01683865115046501
000140 00 00 00 60 d1 4a b5 3f 00 00 00 40 de 3a a7 bf
       0.08317288011312485 -0.045371003448963165
000150 00 00 00 e0 04 28 b2 3f 00 00 00 40 93 fb 78 3f
       0.07092314213514328 0.006099295802414417
000160 00 00 00 a0 b8 91 a6 bf 00 00 00 80 0f d6 8a bf
       -0.04408051446080208 -0.013103600591421127
000170 00 00 00 c0 9e b4 bf 3f 00 00 00 20 a6 4f bf bf
       0.1238497942686081 -0.12230909615755081
000180 00 00 00 e0 0d 63 ba 3f 00 00 00 40 8b fc b2 bf
       0.10307394713163376 -0.07416601479053497
000190 00 00 00 c0 31 64 c5 3f 00 00 00 a0 40 ad b8 3f
       0.16712018847465515 0.09639362245798111
0001a0 00 00 00 c0 e7 17 c3 bf 00 00 00 40 af 7a 95 bf
       -0.1491670310497284 -0.020975816994905472
0001b0 00 00 00 60 b9 de b9 3f 00 00 00 40 d4 86 b3 3f
       0.10105475038290024 0.07627607882022858
0001c0 00 00 00 c0 a3 91 bf 3f 00 00 00 40 71 1f ac 3f
       0.12331603467464447 0.054927386343479156
0001d0 00 00 00 c0 df 6e b5 bf 00 00 00 20 89 1b c1 3f
       -0.0837230533361435 0.13365282118320465
0001e0 00 00 00 a0 58 e7 8a bf 00 00 00 60 99 a8 b7 bf
       -0.01313657034188509 -0.09241636842489243
0001f0 00 00 00 40 5b 6c 78 3f 00 00 00 80 94 de b6 bf
       0.00596271175891161 -0.08933380246162415
000200 00 00 00 20 73 73 c1 3f 00 00 00 40 a9 d0 c0 3f
       0.13633574545383453 0.13136783242225647
000210 00 00 00 80 36 a5 b4 bf 00 00 00 20 88 4c a0 bf
       -0.08064594864845276 -0.031833890825510025
000220 00 00 00 60 3c 01 bb 3f 00 00 00 80 4b 27 55 3f
       0.10548760741949081 0.0012911069206893444
000230 00 00 00 60 68 49 9f bf 00 00 00 20 c6 ad 9f bf
       -0.030553465709090233 -0.030936332419514656
000240 00 00 00 00 5f b3 a0 bf 00 00 00 20 c4 d0 68 bf
       -0.03261849284172058 -0.003029234940186143
000250 00 00 00 a0 b9 8e b2 bf 00 00 00 80 ee 2a 76 bf
       -0.07249031215906143 -0.005412036553025246
000260 00 00 00 e0 83 d0 b0 bf 00 00 00 20 2c bc b1 3f
       -0.06568168848752975 0.06927753239870071
000270 00 00 00 00 2a 95 b4 3f 00 00 00 60 99 70 bf 3f
       0.08040106296539307 0.12281187623739243
000280 00 00 00 60 04 ae a6 3f 00 00 00 a0 22 eb b7 3f
       0.044296395033597946 0.09343162924051285
000290 00 00 00 e0 c9 dd ba bf 00 00 00 00 b0 e9 b2 3f
       -0.10494672507047653 0.07387828826904297
0002a0 00 00 00 60 95 56 aa 3f 00 00 00 e0 47 f6 c1 3f
       0.05144182965159416 0.14032839238643646
0002b0 00 00 00 e0 67 88 b4 3f 00 00 00 00 4b 92 b1 3f
       0.08020638674497604 0.06863850355148315
0002c0 00 00 00 e0 b1 bf b8 3f 00 00 00 c0 c0 20 a8 3f
       0.09667503088712692 0.04712488502264023
0002d0 00 00 00 20 b3 fa 96 3f 00 00 00 c0 a9 37 90 3f
       0.022440718486905098 0.01583733782172203
0002e0 00 00 00 00 99 a4 b4 bf 00 00 00 60 5d 1e b1 3f
       -0.08063656091690063 0.0668695792555809
0002f0 00 00 00 20 f5 af 5f 3f 00 00 00 60 ab 1f a7 3f
       0.001934041385538876 0.04516349360346794
000300 00 00 00 00 54 41 b4 3f 00 00 00 20 44 85 b8 3f
       0.07912182807922363 0.09578347951173782
000310 00 00 00 e0 21 e8 ad bf 00 00 00 00 04 d8 b0 3f
       -0.05841165408492088 0.0657961368560791
000320 00 00 00 60 b3 f0 98 3f 00 00 00 20 a7 bc 86 bf
       0.024355700239539146 -0.011102014221251011
000330 00 00 00 20 f0 09 b5 bf 00 00 00 60 08 ab 99 bf
       -0.08218289166688919 -0.025066500529646873
000340 00 00 00 c0 89 d5 b4 bf 00 00 00 60 1d 12 b6 3f
       -0.08138333261013031 0.08621390908956528
000350 00 00 00 80 4b 4d 96 bf 00 00 00 a0 d9 3a 9b 3f
       -0.02177923172712326 0.02659168280661106
000360 00 00 00 80 63 dd a3 3f 00 00 00 00 ba 1f a0 3f
       0.038798436522483826 0.03149205446243286
000370 00 00 00 60 a8 a4 b0 bf 00 00 00 c0 5c 6f b5 3f
       -0.06501247733831406 0.08373050391674042
000380 00 00 00 a0 bf d8 bb 3f 00 00 00 40 8c 68 c3 3f
       0.10877607017755508 0.1516280472278595
000390 00 00 00 20 26 07 c0 3f 00 00 00 e0 2a fd c2 3f
       0.12521816790103912 0.1483510583639145
0003a0 00 00 00 e0 c9 76 b8 bf 00 00 00 80 65 48 ba 3f
       -0.09556256979703903 0.1026671826839447
0003b0 00 00 00 e0 1b 7e aa 3f 00 00 00 e0 8f 31 c4 3f
       0.05174338445067406 0.15776251256465912
0003c0 00 00 00 e0 7e 42 8d 3f 00 00 00 a0 9e 87 a2 3f
       0.01428698655217886 0.0361909456551075
0003d0 00 00 00 80 4a 6b 9e bf 00 00 00 e0 0f 2c ba 3f
       -0.029706157743930817 0.10223483294248581
0003e0 00 00 00 00 9a 0b a9 3f 00 00 00 c0 2b ca bb 3f
       0.048916637897491455 0.10855363309383392
0003f0 00 00 00 c0 dc 99 bc 3f 00 00 00 e0 44 79 92 3f
       0.11172275245189667 0.01804072968661785
000400 00 00 00 00 00 f8 a8 3f 00 00 00 20 65 9b be 3f
       0.04876708984375 0.11955863982439041
000410 00 00 00 80 8c ca b2 3f 00 00 00 a0 58 af ab bf
       0.07340314984321594 -0.05407216027379036
000420 00 00 00 a0 29 8e bf 3f 00 00 00 20 ab 0e b3 bf
       0.12326297909021378 -0.07444257289171219
000430 00 00 00 a0 64 25 af 3f 00 00 00 80 7d d4 c4 3f
       0.06083216145634651 0.16273468732833862
000440 00 00 00 a0 15 c0 c0 3f 00 00 00 60 ed ac 95 bf
       0.13086195290088654 -0.02116747759282589
000450 00 00 00 80 56 97 bd bf 00 00 00 60 cf cd c0 3f
       -0.11559048295021057 0.1312808245420456
000460 00 00 00 60 41 de 8e bf 00 00 00 20 c9 1e b9 3f
       -0.015072355978190899 0.09812600165605545
000470 00 00 00 60 07 6b 9b bf 00 00 00 40 b6 fd c4 3f
       -0.02677547000348568 0.16399267315864563
000480 00 00 00 20 82 0d a3 bf 00 00 00 20 79 75 8f bf
       -0.03721243515610695 -0.015360780991613865
000490 00 00 00 00 60 56 78 3f 00 00 00 40 a0 52 b5 bf
       0.00594174861907959 -0.08329202234745026
0004a0 00 00 00 40 5e 38 88 3f 00 00 00 40 0d 9a b4 3f
       0.01182626374065876 0.08047564327716827
0004b0 00 00 00 e0 92 08 81 3f 00 00 00 c0 81 a9 c2 3f
       0.008317134343087673 0.1457979381084442
0004c0 00 00 00 a0 7e 72 65 3f 00 00 00 e0 fe 56 b6 bf
       0.0026180718559771776 -0.08726494759321213
0004d0 00 00 00 e0 62 a1 a0 bf 00 00 00 e0 7a bb 81 3f
       -0.03248127922415733 0.008658370934426785
0004e0 00 00 00 a0 95 0e bb bf 00 00 00 a0 c2 f4 c2 3f
       -0.10569129139184952 0.14809449017047882
0004f0 00 00 00 80 20 5d b4 3f 00 00 00 00 e8 af 18 3f
       0.0795460045337677 9.417394176125526e-05
000500 00 00 00 e0 ae cd 88 3f 00 00 00 c0 25 8c a6 3f
       0.01211105939000845 0.044037990272045135
000510 00 00 00 40 6e 10 5c 3f 00 00 00 40 dd 65 a0 bf
       0.0017129017505794764 -0.03202716261148453
000520 00 00 00 00 79 fb 99 bf 00 00 00 40 97 b0 b2 3f
       -0.02537335455417633 0.07300706207752228
000530 00 00 00 c0 ad 8b b2 bf 00 00 00 e0 2a 97 92 bf
       -0.07244382798671722 -0.01815478317439556
000540 00 00 00 80 20 eb a6 bf 00 00 00 60 97 b0 a0 3f
       -0.04476262629032135 0.03259728476405144
000550 00 00 00 20 d0 75 a5 bf 00 00 00 80 6e c7 be bf
       -0.04191446676850319 -0.12023058533668518
000560 00 00 00 60 fd 6b 99 bf 00 00 00 e0 20 ab b0 bf
       -0.024826010689139366 -0.06511121243238449
000570 00 00 00 c0 d1 d8 88 3f 00 00 00 80 ed a1 ae bf
       0.012132300063967705 -0.05982916057109833
000580 00 00 00 40 65 53 a7 bf 00 00 00 a0 a1 33 c3 3f
       -0.045558132231235504 0.15001316368579865
000590 00 00 00 00 f0 49 74 bf 00 00 00 a0 f3 ed 9f bf
       -0.004953324794769287 -0.031181151047348976
0005a0 00 00 00 20 57 df cb bf 00 00 00 c0 f1 c1 b0 bf
       -0.2177533060312271 -0.06545935571193695
0005b0 00 00 00 a0 50 d0 98 3f 00 00 00 c0 50 f0 9a bf
       0.024232158437371254 -0.026307355612516403
0005c0 00 00 00 a0 56 83 b6 3f 00 00 00 60 23 fe c2 3f
       0.08794156461954117 0.14838068187236786
0005d0 00 00 00 20 ab 13 7c 3f 00 00 00 80 94 6b 9d 3f
       0.006854694802314043 0.02873069792985916
0005e0 00 00 00 e0 f5 7f bd 3f 00 00 00 a0 ca d7 6d bf
       0.11523377150297165 -0.003642936469987035
0005f0 00 00 00 a0 ab de b8 3f 00 00 00 c0 86 40 b3 bf
       0.09714768081903458 -0.07520334422588348
000600 00 00 00 e0 6e e3 c1 3f 00 00 00 80 be 45 bc 3f
       0.13975320756435394 0.11043921113014221
000610 00 00 00 00 17 29 ad 3f 00 00 00 00 a6 ae b0 bf
       0.05695411562919617 -0.06516492366790771
000620 00 00 00 80 eb c5 b9 bf 00 00 00 a0 eb 92 b3 bf
       -0.1006762683391571 -0.0764605775475502
000630 00 00 00 00 97 bf 90 bf 00 00 00 e0 5c 3b b9 3f
       -0.016355857253074646 0.09856205433607101
000640 00 00 00 20 93 80 b5 3f 00 00 00 c0 22 25 c1 3f
       0.08399314433336258 0.1339457929134369
000650 00 00 00 00 07 d2 72 3f 00 00 00 00 5e 83 a4 3f
       0.004594828933477402 0.04006475210189819
000660 00 00 00 60 31 4c b4 3f 00 00 00 60 1c c0 b6 3f
       0.07928761094808578 0.0888688787817955
000670 00 00 00 60 3d 6e c7 3f 00 00 00 20 5f cc c6 3f
       0.18305175006389618 0.17811192572116852
000680 00 00 00 a0 3a e3 c0 bf 00 00 00 a0 26 66 bd 3f
       -0.13193447887897491 0.11483994871377945
000690 00 00 00 20 e8 15 80 bf 00 00 00 c0 a7 b1 9c 3f
       -0.007854283787310123 0.028021451085805893
0006a0 00 00 00 40 8b 6f b2 bf 00 00 00 60 cf dc b4 3f
       -0.07201452553272247 0.0814942941069603
0006b0 00 00 00 60 b5 a5 b5 3f 00 00 00 60 a1 33 a2 3f
       0.08455976098775864 0.035550158470869064
0006c0 00 00 00 c0 44 60 c5 3f 00 00 00 00 ac 13 b4 bf
       0.16700038313865662 -0.07842516899108887
0006d0 00 00 00 80 64 ad be 3f 00 00 00 00 76 f6 b5 bf
       0.11983326077461243 -0.0857919454574585
0006e0 00 00 00 80 52 ea a0 bf 00 00 00 40 da c3 a6 3f
       -0.033037737011909485 0.044462986290454865
0006f0 00 00 00 40 8c 65 93 3f 00 00 00 c0 a9 ac a7 bf
       0.018942061811685562 -0.04623918980360031
000700 00 00 00 e0 43 b8 a2 3f 00 00 00 20 0e 47 96 3f
       0.036562081426382065 0.021755428984761238
000710 00 00 00 c0 a1 2b 97 bf 00 00 00 20 6f be 92 bf
       -0.02262737974524498 -0.018304573372006416
000720 00 00 00 40 e4 2b b6 bf 00 00 00 e0 5a c9 b5 bf
       -0.08660723268985748 -0.08510368317365646
000730 00 00 00 80 2e 50 65 3f 00 00 00 00 19 21 b7 bf
       0.0026017101481556892 -0.09034878015518188
000740 00 00 00 e0 bc ff 9c bf 00 00 00 80 ca 04 a8 3f
       -0.028319312259554863 0.04691155254840851
000750 00 00 00 80 66 cd ba bf 00 00 00 60 93 56 a6 3f
       -0.10469666123390198 0.04362927004694939
000760 00 00 00 20 00 08 83 3f 00 00 00 20 19 d0 a8 bf
       0.009292603470385075 -0.04846266284584999
000770 00 00 00 80 fb 84 b3 bf 00 00 00 a0 e9 da 77 bf
       -0.07624790072441101 -0.005824005696922541
000780 00 00 00 80 8b 8a b6 3f 00 00 00 80 9b d2 8e bf
       0.08805152773857117 -0.015050139278173447
000790 00 00 00 60 32 35 a7 3f 00 00 00 e0 21 38 c3 3f
       0.04532773420214653 0.15015052258968353
0007a0 00 00 00 40 dc 92 cc bf 00 00 00 60 6b a4 a3 bf
       -0.22323182225227356 -0.03836379572749138
0007b0 00 00 00 e0 7e ea a0 bf 00 00 00 60 89 1b c3 3f
       -0.03303905948996544 0.14927785098552704
0007c0 00 00 00 a0 5f f1 b7 3f 00 00 00 40 66 24 a0 3f
       0.09352681785821915 0.03152770549058914
0007d0 00 00 00 a0 22 d3 91 3f 00 00 00 60 d8 a1 a1 3f
       0.017406979575753212 0.03443790599703789
0007e0 00 00 00 60 5e 99 bb 3f 00 00 00 60 f4 e7 96 bf
       0.10780896991491318 -0.02236921153962612
0007f0 00 00 00 a0 6e 17 99 3f 00 00 00 c0 55 60 a9 3f
       0.024503448978066444 0.049563102424144745

bias f8 [64]
000000 00 00 00 a0 4a b4 76 3f 00 00 00 a0 55 7d bb 3f
       0.005543033126741648 0.10738120228052139
000010 00 00 00 e0 d7 1b 85 bf 00 00 00 60 75 31 a4 bf
       -0.010307013057172298 -0.039439838379621506
000020 00 00 00 40 93 92 b3 bf 00 00 00 20 eb be bc 3f
       -0.07645530998706818 0.11228818446397781
000030 00 00 00 c0 75 7b a4 3f 00 00 00 60 43 b0 c1 3f
       0.0400044247508049 0.13819162547588348
000040 00 00 00 00 2c cb a7 3f 00 00 00 e0 14 56 a5 3f
       0.04647195339202881 0.04167237505316734
000050 00 00 00 60 04 5e 91 3f 00 00 00 c0 82 49 a3 bf
       0.016960209235548973 -0.03767021745443344
000060 00 00 00 20 85 2e b1 bf 00 00 00 40 08 9c a0 3f
       -0.06711608916521072 0.0324404314160347
000070 00 00 00 00 8a e7 80 3f 00 00 00 e0 65 9e ba 3f
       0.008254125714302063 0.10397946089506149
000080 00 00 00 a0 36 df c0 3f 00 00 00 40 e8 12 8a bf
       0.1318119317293167 -0.01273137517273426
000090 00 00 00 c0 5c 4c 96 bf 00 00 00 20 50 62 71 bf
       -0.02177567407488823 -0.004244149196892977
0000a0 00 00 00 80 b5 c5 b2 bf 00 00 00 40 72 8c b3 bf
       -0.07332929968833923 -0.07636179029941559
0000b0 00 00 00 20 d1 62 94 3f 00 00 00 c0 da ba b0 3f
       0.019908206537365913 0.06535117328166962
0000c0 00 00 00 80 0a 0c 8d 3f 00 00 00 40 22 d2 b7 bf
       0.014183122664690018 -0.09305013716220856
0000d0 00 00 00 00 86 dd 96 3f 00 00 00 c0 1e 70 b1 bf
       0.0223294198513031 -0.06811706721782684
0000e0 00 00 00 c0 c8 0c a3 bf 00 00 00 c0 63 e6 92 3f
       -0.03720691055059433 0.018456991761922836
0000f0 00 00 00 40 aa 74 a3 bf 00 00 00 c0 30 17 b3 3f
       -0.037999458611011505 0.0745726078748703
000100 00 00 00 c0 cb cd b8 3f 00 00 00 80 c0 c8 c1 3f
       0.09689019620418549 0.13893896341323853
000110 00 00 00 20 80 8f b1 bf 00 00 00 80 86 9b 5f bf
       -0.06859589368104935 -0.001929169986397028
000120 00 00 00 80 b2 e1 9b 3f 00 00 00 c0 ee 28 c0 3f
       0.027228154242038727 0.12624916434288025
000130 00 00 00 c0 5c 78 95 bf 00 00 00 c0 2e 40 9c bf
       -0.02096695825457573 -0.027588587254285812
000140 00 00 00 e0 1d 30 a3 3f 00 00 00 20 4e d7 a0 3f
       0.03747647628188133 0.03289264813065529
000150 00 00 00 40 99 fe ba 3f 00 00 00 00 d0 64 be 3f
       0.10544736683368683 0.11872577667236328
000160 00 00 00 a0 ed 10 b8 3f 00 00 00 80 12 79 b4 bf
       0.09400830417871475 -0.07997241616249084
000170 00 00 00 20 b9 5a ba bf 00 00 00 60 26 92 c0 3f
       -0.10294682532548904 0.1294601410627365
000180 00 00 00 40 a4 22 c1 3f 00 00 00 40 e2 62 b0 bf
       0.13386967778205872 -0.06400884687900543
000190 00 00 00 40 7e 84 a0 3f 00 00 00 e0 a8 2c c0 bf
       0.03226084262132645 -0.1263629049062729
0001a0 00 00 00 e0 df a6 b5 3f 00 00 00 20 b2 de b4 3f
       0.08457755297422409 0.08152306824922562
0001b0 00 00 00 20 0a 4c a7 bf 00 00 00 60 9f 5d b0 bf
       -0.045502010732889175 -0.06392856687307358
0001c0 00 00 00 60 85 c6 aa 3f 00 00 00 80 40 0d a0 bf
       0.05229584500193596 -0.031351104378700256
0001d0 00 00 00 80 2c 41 a4 3f 00 00 00 60 12 8c 94 3f
       0.0395597368478775 0.020065581426024437
0001e0 00 00 00 00 9f 24 b2 bf 00 00 00 c0 75 15 a5 bf
       -0.07087129354476929 -0.0411793515086174
0001f0 00 00 00 c0 fa 5a 80 3f 00 00 00 a0 d6 cb ba 3f
       0.007986029610037804 0.10467282682657242
