examples/mliap/relu1hidden.mliap.pytorch.model.pt (torch_old, 11506 bytes, 4 tensors)

weight f8 [6, 30]
0	0x3fb8fddf20000000	0.09762377291917801
1	0x3f97f87ca0000000	0.023408839479088783
2	0xbfdee9cca0000000	-0.48301997780799866
3	0x3fc0d578a0000000	0.13151462376117706
4	0x3fe3c1f800000000	0.6174278259277344
5	0xbfcab56c40000000	-0.20866158604621887
6	0x3fce9d9ba0000000	0.23918481171131134
7	0x3fc35420c0000000	0.1510048806667328
8	0xbfd4008aa0000000	-0.31253305077552795
9	0x3fd10564c0000000	0.2659541964530945
10	0x3fc6d8f2a0000000	0.17849572002887726
11	0x3fce88d940000000	0.2385512888431549
12	0x3fa1c42ee0000000	0.03469988331198692
13	0x3fb559bf60000000	0.08340068906545639
14	0x3f85624420000000	0.01044133398681879
15	0x3fb64118e0000000	0.08693080395460129
16	0x3fd4e77e40000000	0.3266292214393616
17	0x3fc68e4140000000	0.1762162744998932
18	0xbfaf570020000000	-0.06121063604950905
19	0xbfc3680f80000000	-0.15161317586898804
20	0xbfbdc31ee0000000	-0.11625855416059494
21	0xbfcbe33bc0000000	-0.21787211298942566
22	0x3f881fb540000000	0.01177922822535038
23	0xbfb5ecb540000000	-0.08564312756061554
24	0x3fc5f87c00000000	0.1716456413269043
25	0x3fb6cd2de0000000	0.08906828612089157
26	0xbf964b42c0000000	-0.021771471947431564
27	0x3fabf8dfc0000000	0.05463313311338425
28	0xbfbb7229c0000000	-0.10721074044704437
29	0xbf8c0949a0000000	-0.013689589686691761
30	0xbfb1584560000000	-0.06775315850973129
31	0xbfb078a1e0000000	-0.06434070318937302
32	0xbfc2e991a0000000	-0.14775295555591583
33	0xbfbd690f40000000	-0.11488433182239532
34	0x3faba514e0000000	0.05399384722113609
35	0x3f764ac480000000	0.00544239766895771
36	0xbfac11dbe0000000	-0.054823752492666245
37	0x3fb3b46400000000	0.07697129249572754
38	0x3fb59f42e0000000	0.08446138352155685
39	0x3fc37b57e0000000	0.15220163762569427
40	0xbfc3d3f120000000	-0.15490545332431793
41	0xbfc62de360000000	-0.1732753962278366
42	0xbfc1e53320000000	-0.13980711996555328
43	0xbfc7ce6660000000	-0.18598632514476776
44	0xbfa4355c20000000	-0.039469603449106216
45	0xbfb3ac55c0000000	-0.07684837281703949
46	0x3fb1570980000000	0.06773433089256287
47	0x3fbc1b7b00000000	0.10979431867599487
48	0x3fb5795320000000	0.08388251811265945
49	0xbfbe1cde60000000	-0.11762800067663193
50	0xbfc2561800000000	-0.14325237274169922
51	0xbfb3bcfb60000000	-0.07710238546133041
52	0x3fba592600000000	0.10292279720306396
53	0x3fc131eea0000000	0.13433630764484406
54	0xbfc2ae2500000000	-0.14593946933746338
55	0x3fc1d64220000000	0.13935114443302155
56	0xbfb826a9c0000000	-0.09433995187282562
57	0x3fb4a7a000000000	0.08068275451660156
58	0xbfb56e3220000000	-0.08371270447969437
59	0x3fb95db600000000	0.09908616542816162
60	0x3fc00289e0000000	0.12507747113704681
61	0x3fbe77c600000000	0.11901509761810303
62	0xbfe3a1a1a0000000	-0.6134803891181946
63	0x3fd617a300000000	0.34519267082214355
64	0x3fe2fa4de0000000	0.5930547118186951
65	0xbfafd77440000000	-0.06219065934419632
66	0x3fd33abd60000000	0.30046018958091736
67	0x3fd188d240000000	0.2739759087562561
68	0xbfcad0eec0000000	-0.20950111746788025
69	0x3fe1404120000000	0.539093554019928
70	0x3fc0207a60000000	0.12599115073680878
71	0x3fd03b6900000000	0.25362610816955566
72	0xbfbe9384c0000000	-0.11943845450878143
73	0x3fa0987e40000000	0.03241343051195145
74	0xbf8abcb220000000	-0.013055221177637577
75	0xbf87a2e1e0000000	-0.011541142128407955
76	0x3fd77fc580000000	0.36717355251312256
77	0x3fd30f5ba0000000	0.2978123724460602
78	0x3fbc323dc0000000	0.11014162003993988
79	0xbfc6817920000000	-0.17582620680332184
80	0x3fab8578c0000000	0.053752683103084564
81	0xbfc4d3bcc0000000	-0.1627117097377777
82	0x3f9ab35220000000	0.02607467956840992
83	0x3fa99064c0000000	0.04992976039648056
84	0xbfa6040ee0000000	-0.04299971088767052
85	0x3fa20d0540000000	0.035255588591098785
86	0x3fa4f3db80000000	0.04092298448085785
87	0x3faf168d80000000	0.06071893870830536
88	0x3fb8270440000000	0.0943453460931778
89	0x3f76b9fd20000000	0.005548466462641954
90	0xbfa57c5f00000000	-0.04196450114250183
91	0x3fb5b28c80000000	0.08475568890571594
92	0xbfdf881120000000	-0.4926798641681671
93	0x3fcb9386c0000000	0.21543964743614197
94	0x3fe5cb7100000000	0.681084156036377
95	0xbf93eddf40000000	-0.01946209743618965
96	0x3fce86b540000000	0.23848596215248108
97	0x3fd183c380000000	0.27366721630096436
98	0xbfd6a573a0000000	-0.3538483679294586
99	0x3fd3720440000000	0.3038340210914612
100	0x3fc6509820000000	0.1743345409631729
101	0x3fe1ec52a0000000	0.5600979924201965
102	0x3fb8f6fdc0000000	0.09751878678798676
103	0x3fd362b1c0000000	0.3028988242149353
104	0xbfb0e0e660000000	-0.06593170017004013
105	0xbfc1c20900000000	-0.13873398303985596
106	0x3fd02aae60000000	0.25260505080223083
107	0x3fdd6428a0000000	0.459238201379776
108	0xbfabf8f760000000	-0.054633837193250656
109	0x3fc38370c0000000	0.15244874358177185
110	0x3fc4c11120000000	0.16214193403720856
111	0xbfd85506e0000000	-0.3801896274089813
112	0x3f80d86420000000	0.008225233294069767
113	0x3f65436580000000	0.0025956137105822563
114	0x3fb3b792e0000000	0.07701986283063889
115	0x3fd3e26080000000	0.3106919527053833
116	0x3faaa22d80000000	0.05201856791973114
117	0x3fa67717c0000000	0.04387735575437546
118	0x3fc13e68c0000000	0.13471707701683044
119	0xbf97b57c00000000	-0.023153245449066162
120	0xbfa2acbe20000000	-0.03647417202591896
121	0x3fc0778120000000	0.12864698469638824
122	0xbff78b5ba0000000	-1.4715229272842407
123	0x3fd8a3e820000000	0.38500407338142395
124	0x3fe49e0c40000000	0.644292950630188
125	0xbfb3d9c7a0000000	-0.07754180580377579
126	0x3fd7cdc3c0000000	0.37193387746810913
127	0x3fc6cfbf00000000	0.1782149076461792
128	0xbfd5513580000000	-0.33308160305023193
129	0x3fdf330e40000000	0.4874911904335022
130	0x3fd319bb80000000	0.29844558238983154
131	0x3fd64ee040000000	0.3485642075538635
132	0x3f8f3591e0000000	0.015238895080983639
133	0x3fa591d180000000	0.04212813079357147
134	0x3f4f48bec0000000	0.0009547168156132102
135	0x3f80c82d20000000	0.008194305934011936
136	0x3fc38f3840000000	0.15280821919441223
137	0x3fdf811380000000	0.4922531843185425
138	0x3fc0b9fde0000000	0.1306760162115097
139	0x3fa832ac60000000	0.04726160690188408
140	0x3fc0c6d9c0000000	0.13106843829154968
141	0xbfd667eda0000000	-0.350093275308609
142	0xbfcf710520000000	-0.24563659727573395
143	0x3fb2dc20c0000000	0.0736713856458664
144	0x3fb77e2f40000000	0.09176917374134064
145	0x3fb89e1ae0000000	0.09616249054670334
146	0xbf56f670c0000000	-0.0014015294145792723
147	0xbfc185e680000000	-0.13689881563186646
148	0xbfc2450f60000000	-0.14273254573345184
149	0x3fab8c3480000000	0.053804054856300354
150	0xbfbd3c6340000000	-0.11420269310474396
151	0x3fc58cc3c0000000	0.16835829615592957
152	0x3fb3062000000000	0.07431221008300781
153	0x3fc16d0400000000	0.1361393928527832
154	0x3fc1063480000000	0.13300186395645142
155	0xbfc27c7f80000000	-0.14442437887191772
156	0xbfa600b480000000	-0.04297412931919098
157	0xbfa2623500000000	-0.03590551018714905
158	0xbf9f333700000000	-0.030468806624412537
159	0xbfb2932340000000	-0.07255764305591583
160	0xbfbd6ea3c0000000	-0.11496947705745697
161	0x3fb2ea1500000000	0.07388430833816528
162	0xbfbf169640000000	-0.1214383989572525
163	0x3fc300f380000000	0.14846652746200562
164	0x3fc5f42640000000	0.17151334881782532
165	0x3f463d0000000000	0.0006786584854125977
166	0xbfa1cae300000000	-0.03475102782249451
167	0xbfb90200e0000000	-0.09768681973218918
168	0x3fbf741600000000	0.12286508083343506
169	0xbfbf95fe60000000	-0.12338247150182724
170	0xbf998e8200000000	-0.02495768666267395
171	0xbf8013a200000000	-0.00784994661808014
172	0x3faa130800000000	0.05092644691467285
173	0xbfc13104c0000000	-0.13430842757225037
174	0xbfbc3c41e0000000	-0.11029445379972458
175	0x3fba6ab800000000	0.10319089889526367
176	0xbf99d21800000000	-0.025215506553649902
177	0x3fc01a0a40000000	0.1257946789264679
178	0xbfc3360d80000000	-0.15008705854415894
179	0xbfbc0ca1a0000000	-0.10956773906946182

bias f8 [6]
0	0x3fce093520000000	0.23465599119663239
1	0x3fbc612300000000	0.11085718870162964
2	0x3fd9ab3ec0000000	0.4010769724845886
3	0x3fccbaa2a0000000	0.2244456559419632
4	0x3fd2d1e5c0000000	0.2940611243247986
5	0xbfc5a49460000000	-0.1690850704908371

weight f8 [1, 6]
0	0xbf903de940000000	-0.01586117222905159
1	0x3fb5cdd600000000	0.08517205715179443
2	0xbfb34752a0000000	-0.07530704885721207
3	0xbfc4f325a0000000	-0.16367025673389435
4	0xbfc2429020000000	-0.1426563411951065
5	0xbfd081c700000000	-0.2579209804534912

bias f8 [1]
0	0x3fbcece100000000	0.11298948526382446
