examples/mliap/Ta06A.mliap.pytorch.model.pt (torch, 3076 bytes, 2 tensors)

weight f8 [1, 30]
0	0xbf874927913e8145	-0.01137
1	0xbf7fbe76c8b43958	-0.00775
2	0xbfa91fb3fa6defc8	-0.04907
3	0xbfc34299d883ba34	-0.15047
4	0x3fb77121ab4b72c5	0.09157
5	0x3fac9eecbfb15b57	0.0559
6	0x3fad9e83e425aee6	0.05785
7	0xbfbdbc01a36e2eb2	-0.11615
8	0xbfc5ea897635e743	-0.17122
9	0xbfbb17acc4ef88b9	-0.10583
10	0x3fa42d8c2a454de8	0.03941
11	0xbfbce3150dae3e6c	-0.11284
12	0x3fa42aed1394317b	0.03939
13	0xbfb2c471b4784231	-0.07331
14	0xbfb0d9945b6c3761	-0.06582
15	0xbfb7e9b7bf1e8e61	-0.09341
16	0xbfbb1a4bdba0a527	-0.10587
17	0xbfc3d60e94ee392e	-0.15497
18	0x3fa8adab9f559b3d	0.0482
19	0x3f60cb295e9e1b09	0.00205
20	0x3f43a92a30553261	0.0006
21	0xbfa913e81450efdd	-0.04898
22	0xbfaa07b352a84381	-0.05084
23	0xbfa1426fe718a86d	-0.03371
24	0xbf8d82fd75e2046c	-0.01441
25	0xbf8ebd9018e75793	-0.01501
26	0xbf7888f861a60d45	-0.00599
27	0xbfb0509bf9c62a1b	-0.06373
28	0x3fa44d013a92a305	0.03965
29	0x3f85f45e0b4e11dc	0.01072

bias f8 [1]
0	0xc00765edd052934b	-2.92477
