examples/mliap/Ta_ACE.mliap.pytorch.model.pt (torch, 3914 bytes, 2 tensors)

weight f8 [1, 141]
0	0xc03693bd4528d151	-22.5771067833569
1	0xbf972b8eac00a4a6	-0.022627095459175316
2	0x40350099d60b9a4e	21.00234735282202
3	0x3ffbe53b18dd8262	1.7434645625400198
4	0x3fbcfd175570d47f	0.11323686443286539
5	0x4015bec15e661202	5.436284518222694
6	0xc002eca94577b211	-2.365557234492606
7	0x0000000000000000	0.0
8	0x0000000000000000	0.0
9	0x0000000000000000	0.0
10	0x0000000000000000	0.0
11	0x0000000000000000	0.0
12	0x0000000000000000	0.0
13	0x0000000000000000	0.0
14	0x0000000000000000	0.0
15	0x0000000000000000	0.0
16	0x0000000000000000	0.0
17	0x0000000000000000	0.0
18	0x0000000000000000	0.0
19	0x0000000000000000	0.0
20	0x0000000000000000	0.0
21	0x0000000000000000	0.0
22	0x40245745b4b27898	10.170453688417453
23	0xc090530d1fef5821	-1044.7628171346225
24	0x4081e5ad5d889e33	572.709651057556
25	0xc069ecb19bf8e590	-207.3966808186783
26	0x40405d4b2704faf6	32.72885596984081
27	0x3f6901e6066098c5	0.003052663104443717
28	0x4079091e48d62735	400.56989368108344
29	0x4088570aa34bf89e	778.8801942763564
30	0x40655b5c5299ce41	170.85501985588238
31	0xc069b23fc96afbc2	-205.57028647322846
32	0xc078ef69bb0f9ac2	-398.96331316085355
33	0xc054f3e0411ec352	-83.81056240085789
34	0x406681ccb742c47e	180.0562397293142
35	0xc034800f80b06b9f	-20.500236552306543
36	0x0000000000000000	0.0
37	0xc038e231471ee562	-24.883564419787383
38	0x4062642713352092	147.12976990105068
39	0x3fb244c93a66de6c	0.07136209178758585
40	0xc03162221e240997	-17.383333095358093
41	0x4042c67833cda16c	37.550543284802956
42	0x3f93a40b3fc2ce32	0.0191804654757119
43	0xc0582feaf7f6eaa1	-96.74871634591047
44	0xbf7af5408e62ebab	-0.006581546948093579
45	0xc06a03fa9ccff899	-208.124342352098
46	0xbf9b8aeda198b585	-0.02689715670401462
47	0x40206cfd756cb78b	8.212871236344446
48	0x4051ea2cdd50441a	71.65898831213454
49	0x40319c2142c7396b	17.609882520331137
50	0xc04392cf582605ec	-39.146952646795256
51	0x0000000000000000	0.0
52	0x40067f5b274d56f8	2.8121855802991114
53	0xc0542718e20a4130	-80.61089373589925
54	0x40394cf723d0d043	25.30064605567919
55	0xbfbdba48f5f8dd1b	-0.11612373356989673
56	0xc020356e9e65cf29	-8.104359579017528
57	0x3f7852c753926f01	0.005938318842847457
58	0x3f951a0fa9bd17de	0.020607228026413675
59	0x405c3a1529e1c5c5	112.90754172371005
60	0xc03960cb4c737555	-25.378102091014927
61	0x402eea80ac195e34	15.458012941452672
62	0xc04d3e6921bc51d9	-58.48758336730288
63	0x403bdaa7d8f0c88a	27.854123648438453
64	0x0000000000000000	0.0
65	0x0000000000000000	0.0
66	0x0000000000000000	0.0
67	0x40232a0a1a227a43	9.582108322819414
68	0xc040bd1462b5a2d5	-33.47718461865376
69	0xbfc2edb4c21a4aa9	-0.1478792140738581
70	0xbfef7a62cc618ff9	-0.9836896888559742
71	0xc0268934fbd6c0c3	-11.267982358899081
72	0x4067aa0360142d3d	189.31291202488674
73	0xbfb3d3643afdd253	-0.07744432869169175
74	0xbfba55efaf4d2740	-0.102873783395947
75	0xbfb35d8d2e0d1526	-0.075646232359834
76	0xc04ae024e543b7c6	-53.751125963273395
77	0x4040fe749ee4f182	33.98793398074032
78	0x0000000000000000	0.0
79	0xbf80b0f24f705933	-0.0081499987118546
80	0x0000000000000000	0.0
81	0x400867224da7bbec	3.0503583971799255
82	0x3ffc30b8daa0f890	1.7618950405299394
83	0xbf86774eef575541	-0.010969750098335342
84	0xc017fa45fa672424	-5.994407570405233
85	0x3fbdc5edc187a1dd	0.11630140280579533
86	0x0000000000000000	0.0
87	0x3f91b6f760634996	0.01729952359966943
88	0xbf562ab29ce64b4b	-0.0013529533640379173
89	0xc03ff96ed0bec764	-31.974347158982155
90	0x4027466d4b1d6881	11.637552592601653
91	0x401cb6d083b9936d	7.178529794885304
92	0x4029cf51656a3f5b	12.904917878360427
93	0x3f91d0442c99c941	0.017396035406315184
94	0xc015cc285ef8ab8d	-5.449372753074283
95	0x0000000000000000	0.0
96	0x0000000000000000	0.0
97	0x0000000000000000	0.0
98	0x4025675076de68e7	10.701785769128447
99	0x0000000000000000	0.0
100	0xc0052c3a865fdafa	-2.6465960023882618
101	0x0000000000000000	0.0
102	0xc0768f6b6f0d69b4	-360.9637289546911
103	0x406689b19b51368f	180.30293050634324
104	0xbfb7bc49844f57b9	-0.0927167842886253
105	0xc04b7d57192b427d	-54.97922052967349
106	0x3fafe55f5539a509	0.0622968474897992
107	0xc0331372bc304a3f	-19.07596946886974
108	0x403aa9f6592b4d2f	26.663915227004676
109	0x0000000000000000	0.0
110	0xc0016b0bdc586ef4	-2.1772687162864433
111	0x0000000000000000	0.0
112	0x4011a5ff5e6947e2	4.412106967140035
113	0x3fa9745f3f94fc5e	0.04971597338816801
114	0x400c0a94a143132e	3.5051663015932695
115	0x402d3c6629117aa7	14.617966922172242
116	0x408798782492886e	755.0586635063062
117	0xc06e122fb2d52a8f	-240.56832257875473
118	0x3fa905adfb91e8a2	0.048871457061026705
119	0xc0677aea9431b1b7	-187.84113511758707
120	0x4040301c42901a68	32.37586242710387
121	0x405d867f1ac60630	118.10150784815119
122	0xbf8be828f0aacc95	-0.013626403660373302
123	0xc06c52f06c4fffe8	-226.59184852242402
124	0x3fa1107bc1b669a2	0.03332888354926246
125	0xbf81ee00cad1cc10	-0.008754736127434298
126	0x3f854f9e2e48cf7b	0.010405765330780295
127	0xc0393d4c86e0c63d	-25.23944895732551
128	0xc054e6e364dbeff1	-83.6076290271592
129	0x405418dc9b4bcbfb	80.38846475984603
130	0xbfe56e7130680ea1	-0.6697317071379595
131	0x3fa260f644c0be6c	0.035896011250199006
132	0x3fe3a51ac90b5ec0	0.6139043738030168
133	0x3f5e06436f08d076	0.001832548001528015
134	0x3fb27bdbbc5b00eb	0.0722024283268216
135	0x0000000000000000	0.0
136	0xbfa2b78643821e04	-0.03655643056941574
137	0x3f877489e997c765	0.011452748719395786
138	0x0000000000000000	0.0
139	0x0000000000000000	0.0
140	0x0000000000000000	0.0

bias f8 [1]
0	0x0000000000000000	0.0
